Tensorflow - Data and Deployment Specialization/COURSE 2 - Device-based Models with TensorFlow Lite/Week 1/assignment/model.tflite (tflite, 259728 bytes, 8 tensors)

sequential/dense_1/MatMul f4 [10, 64]
000000 aa 6a 49 be a7 31 34 3d 7e 5d 86 be 89 14 e3 3d
       -0.19669595 0.043992665 -0.26243204 0.11087901
000010 fd 2d 63 bd 9e 1a c5 3c 62 6c 9c 3c 33 db fb 3c
       -0.05546378 0.024060544 0.01909465 0.03074417
000020 61 9c 51 be 1b b2 da 3c 0d 3b ab 3d 73 62 2e bd
       -0.2046981 0.026696255 0.083608724 -0.042574357
000030 35 7f c1 be 79 00 20 be 1a 5c 76 be 99 26 0f 3e
       -0.37792364 -0.1562518 -0.24058571 0.13979568
000040 f2 78 ad be be b8 13 bc ac 94 6c 3e c6 9b 81 3d
       -0.33881336 -0.009016214 0.23103589 0.063285396
000050 f7 17 dd 3e e6 af 30 3e d4 c0 a7 be 6a db 32 3d
       0.43182346 0.172546 -0.32764304 0.04366628
000060 89 9d a8 3e 53 14 a2 3d fa 8e 45 3e a1 29 62 bd
       0.3293269 0.07914033 0.19292822 -0.05521548
000070 04 04 20 3e 2e f3 7b bd 64 50 0c 3c ad 6c 34 3e
       0.15626532 -0.06151121 0.0085640885 0.17619582
000080 a0 91 81 3e a6 25 82 3e 35 0d 80 3e 03 a4 fe bd
       0.25306416 0.25419348 0.25010076 -0.124336265
000090 2e 26 80 3e 2f 59 c7 3c 9b c1 a7 3e a7 7a 0b 3e
       0.2502913 0.024334518 0.32764897 0.13621007
0000a0 2f 7f 18 3e 3e 4a 68 3e e5 04 59 be 2c 02 91 bd
       0.14892267 0.22684571 -0.21193273 -0.070804924
0000b0 34 ce 78 3d 01 89 61 be fb 7a 46 3e 6e cf 22 3e
       0.060743526 -0.22024919 0.19382851 0.1589944
0000c0 e4 a3 47 be 08 bb a8 3d 5d e4 8c 3c c6 b2 78 be
       -0.19496113 0.082387984 0.017198736 -0.24286947
0000d0 a7 8d 94 be 2c b9 ea 3e ff 34 23 3e 88 84 8b 3e
       -0.29014322 0.458444 0.15938185 0.2724955
0000e0 c8 ec 1d be be ee 1b be ce 7f e1 bc 88 54 8c 3e
       -0.15422356 -0.15227792 -0.027526762 0.27408242
0000f0 cd c5 06 be f1 2a 8c 3e e1 de 01 3e 95 e5 11 3e
       -0.13161393 0.27376512 0.12682678 0.14247735
000100 ae a2 07 bd eb 4f 46 be 19 db 25 3e 6b 7a 42 be
       -0.033114128 -0.19366424 0.1619686 -0.18992011
000110 bc a5 14 bd d2 71 90 3d 73 74 0c 3d 9e a6 66 be
       -0.03629087 0.070529595 0.034290742 -0.22524497
000120 c0 67 ae bd 24 10 6c 3e 90 71 ad 3e ca 1b ac 3b
       -0.085158825 0.23053032 0.33875704 0.005252336
000130 ee 30 5a 3e 7a 80 19 3d 82 cb 7f be 03 a5 b3 3e
       0.21307728 0.03747604 -0.24979976 0.3508683
000140 6b aa 84 3d 50 ad cf 3d 73 85 60 3d 10 6b 26 3e
       0.06477817 0.101404786 0.054814767 0.16251779
000150 63 dc 11 3e 0d dc 94 be 8e b5 a7 3e 0d 6e 8e 3e
       0.14244227 -0.29074135 0.32755703 0.27818337
000160 e0 e7 19 3e d2 0a 82 3e bc 4f 57 3e b8 35 72 3e
       0.1502986 0.2539888 0.2102651 0.23653305
000170 67 6e 26 3e b2 09 82 3e 49 76 15 be d8 be 8a be
       0.16253053 0.25398022 -0.14595903 -0.27098727
000180 04 d0 a6 3e 47 5b 50 bd dc d1 ca be cf 9d 53 be
       0.32580578 -0.0508683 -0.39613235 -0.20665668
000190 0d fe 67 be e2 ae b6 be a3 b2 63 be fd d8 fd 3d
       -0.22655506 -0.356803 -0.22236113 0.12394903
0001a0 9b 2b 50 bd 13 b3 f5 3d d8 0a eb 3d 03 95 63 3d
       -0.050822835 0.11997046 0.11476678 0.05556203
0001b0 5c b2 91 be ed 8b 54 be 40 cc 41 be 6f dd 02 be
       -0.2845639 -0.20756502 -0.18925571 -0.12779783
0001c0 d6 60 26 3e 19 5f 2d 3e 42 48 4b be bf 58 68 be
       0.16247877 0.16930808 -0.19851783 -0.22690104
0001d0 a2 9a ee 3d c7 dc b6 3d be 40 4c 3e 61 29 bc bd
       0.116505876 0.08928829 0.19946572 -0.0918758
0001e0 23 e8 9d be 94 54 e0 3d c4 88 83 3e e6 50 ec 3d
       -0.3084117 0.10953632 0.2569028 0.11538868
0001f0 bd a8 ee be e2 a0 12 3e 0f 19 55 be ea f4 8c be
       -0.46613112 0.14319184 -0.2081034 -0.27530605
000200 9f d0 6d be 0f cd f4 bd 62 00 c0 bd 16 a7 05 be
       -0.23224114 -0.11953174 -0.09375073 -0.1305202
000210 1c fc 8f 3e 47 4d b4 be eb f5 0e 3e 4b 9c 33 3e
       0.28122032 -0.35215208 0.13960998 0.1754009
000220 13 73 a9 3d ed 34 96 be de 96 d6 3d 99 45 8c bc
       0.08273902 -0.29337254 0.104779944 -0.01712303
000230 76 ba 25 3d 32 9a 82 3e c5 a7 90 be 2d fe d5 bd
       0.040461026 0.25508267 -0.28252998 -0.10448871
000240 c3 b2 3d 3c b0 39 06 bf 94 e6 a3 bd 64 e4 40 3e
       0.011578265 -0.52431774 -0.08002964 0.18837124
000250 cc 61 8e be 02 fa 59 3e bf 72 87 3d 00 37 38 be
       -0.27808988 0.21286777 0.06613683 -0.17989731
000260 0b 38 f8 bb 3d 3e 11 be 5e 37 33 3e 65 d4 57 3e
       -0.00757504 -0.14183898 0.1750159 0.21077116
000270 11 e9 93 be ed c7 3d 3e f0 8e c0 3d cb fa 4a bc
       -0.28888753 0.18533297 0.09402263 -0.012388895
000280 9b a2 79 3e 75 e8 86 3e 23 21 07 3d 51 7d dc bb
       0.24378435 0.26349226 0.032990586 -0.006728806
000290 34 c7 5d be 6c fd 72 be 50 d2 84 be 60 9a 9b 3d
       -0.21658021 -0.23729485 -0.25941706 0.07597804
0002a0 c6 55 d7 bd 78 57 70 3d f7 ac 01 3b ce c2 8a 3d
       -0.10514407 0.058677167 0.0019786933 0.06775437
0002b0 46 7f 12 3d 0b b7 0b 3e 8a e2 3c be b1 28 4b 3e
       0.03576591 0.13644044 -0.18445793 0.19839741
0002c0 4c 25 83 3e f6 cf f4 bc 28 56 9f be 10 1f 55 3e
       0.25614393 -0.02988432 -0.3112042 0.2081263
0002d0 3e 15 87 3e 36 db 26 bd c7 9d 88 3e b7 b5 3f 3e
       0.26383394 -0.0407364 0.26682875 0.18721662
0002e0 ba d0 86 3c cd 6f 50 be af 4d b8 3d 13 f5 0b be
       0.01645695 -0.20355149 0.08999192 -0.13667707
0002f0 21 bb 29 3e 3e b6 2a 3d 6a ed ff bc 00 1c b8 bd
       0.1657529 0.041677706 -0.031241138 -0.089897156
000300 32 21 e7 bd 56 92 ba 3c b9 25 56 be 4d 00 ad be
       -0.112856284 0.022774857 -0.20912828 -0.33789292
000310 b5 93 a4 3d 6e cb 8d be 59 b5 41 bd 56 dd 7e 3e
       0.080359854 -0.27694267 -0.047292087 0.2488912
000320 95 af dd 3c dd ea d1 be a6 25 a6 be d7 da a0 be
       0.027061263 -0.409995 -0.32450598 -0.31416962
000330 f3 78 26 be 0a aa 85 3e 55 54 81 3e 08 43 a9 3d
       -0.16257076 0.26106292 0.25259653 0.08264738
000340 1c 46 17 be 44 a6 ac 3d 2f ca 90 bd d6 33 0e 3d
       -0.14772838 0.0843015 -0.070698135 0.034717403
000350 5f 82 57 3d c7 49 e9 3d de c6 3c 3d 2c 03 d2 bd
       0.052614566 0.11391025 0.046088092 -0.10254511
000360 67 75 37 be f8 29 4a 3e 31 98 44 3e 24 b5 2e be
       -0.17915879 0.19742572 0.19198681 -0.17061287
000370 c5 ba 9a 3e 32 41 7b 3e 13 55 b9 3d 30 b1 61 be
       0.3022062 0.24536589 0.0904943 -0.22040248
000380 0e 83 b2 be 77 64 49 be b2 d2 5b bd 37 3a 60 3e
       -0.34865612 -0.1966723 -0.05366773 0.21897207
000390 5b aa 2b 3e 8a 95 ac be fa 90 de be 1a 58 08 be
       0.16764204 -0.3370784 -0.43469983 -0.13314858
0003a0 94 0c 5a 3d bc 8c 66 be e0 e1 02 3e 6c a8 da be
       0.05323465 -0.22514623 0.12781477 -0.4270662
0003b0 3d 8b 15 be 65 28 49 3e 0b c3 fe bd 8b 16 91 3e
       -0.14603896 0.19644316 -0.12439545 0.2833751
0003c0 54 b7 5a 3d e3 66 3d be 4c ad 12 bd de cf 88 bd
       0.05339749 -0.1849628 -0.0358098 -0.066802725
0003d0 8c 8a d5 3d 7d 8f 36 bc b7 54 94 3e 08 01 79 3e
       0.10426816 -0.011142609 0.28970882 0.243168
0003e0 a3 66 c5 3e 49 fe 32 bd c9 37 94 be 2e e8 67 bd
       0.38554868 -0.043699536 -0.2894881 -0.05661791
0003f0 57 0b 63 3e 11 b6 12 be 75 b9 a5 be 22 1a 63 3d
       0.22172295 -0.14327265 -0.32368055 0.055444844

sequential/dense_1/BiasAdd/ReadVariableOp f4 [10]
000000 1c 1f 3c 3c 3a 8d 76 bd 1c 5c 17 3d a9 8b 03 bd
       0.011482026 -0.060193278 0.036953077 -0.032115612
000010 97 ab f4 bc eb df cd bc 7e 98 09 3c 09 fc 07 3d
       -0.029866977 -0.025131186 0.008398173 0.033199344
000020 cf 36 27 3d 1e 59 00 bd
       0.040823754 -0.03133499

sequential/dense/BiasAdd/ReadVariableOp f4 [64]
000000 b5 55 81 3c 9c b0 f1 3c 82 76 11 bd 8e 3b 23 3c
       0.015787939 0.02950316 -0.03551341 0.009962929
000010 bd 86 ae 3c c8 0e 5e bd c2 1c 5b bb f1 af 30 3d
       0.021304483 -0.054213315 -0.003343389 0.04313654
000020 bf 3d ef bb c1 c9 16 3d fb 70 1b bc 21 54 14 3d
       -0.007301062 0.0368135 -0.009487386 0.036213044
000030 24 63 3c 3c d8 4e b0 bb 06 94 88 bc 48 a8 b9 3c
       0.011498246 -0.0053804927 -0.016672146 0.02266325
000040 bb e5 8b 3c 13 88 92 3a 0e c2 c4 bb c3 7f 4a 3d
       0.017077317 0.0011179469 -0.0060045784 0.04943825
000050 2d ca c8 3c 76 39 c4 3c 21 6c 7c bb 97 1c d1 bb
       0.024510467 0.02395318 -0.0038516598 -0.006381582
000060 88 70 02 bc e0 b7 30 bd 55 5e f1 3b 7d 5b 67 3d
       -0.0079614 -0.043144107 0.0073659816 0.056483734
000070 54 c4 34 3c ac b2 f1 3c d6 bf 02 3d 76 32 14 3d
       0.011033136 0.029504143 0.03192123 0.036180936
000080 5b 30 49 3c d4 34 41 3d 80 67 2b 3d dd 1d a9 ba
       0.012279595 0.04716952 0.041846752 -0.0012902577
000090 ca 4c 8d bc c0 b1 ed bb 23 ac 0b 3d 77 68 01 bc
       -0.01724853 -0.0072538555 0.03409971 -0.0078984415
0000a0 84 10 1c 3d 7f bc c4 bb cf 6b dd bb 4f 11 04 3d
       0.038101688 -0.006003916 -0.0067572366 0.03224307
0000b0 70 5c 94 bc 6e ad 8d 3b 93 26 c6 bb da 40 44 3d
       -0.018110484 0.004323653 -0.006047079 0.04791341
0000c0 26 b3 b7 bb b6 40 03 bc 37 11 8c 3c 2e 13 3c 3d
       -0.005606073 -0.008011034 0.017098052 0.04591673
0000d0 f0 82 d4 3c 59 91 e0 3b 80 15 0f 3d 5e bb c4 bb
       0.025941342 0.0068532643 0.034932613 -0.006003781
0000e0 4c 15 25 3d 67 9b c8 3c b4 a3 00 bc 11 80 e8 bc
       0.040303513 0.024488164 -0.00785153 -0.02838138
0000f0 2e 49 66 3c 32 4e 9b 3b c8 4d 22 3c 21 ed 17 bb
       0.014055533 0.004739546 0.00990624 -0.0023182111

sequential/conv2d/BiasAdd/ReadVariableOp f4 [16]
000000 df 01 6e 3b 04 5d c8 bb 3c db 52 3d 34 77 a0 3c
       0.0036317033 -0.006114604 0.05147861 0.01958809
000010 82 85 99 3a a3 f2 43 3c 2b 80 51 bb c3 87 16 3e
       0.0011712762 0.011959705 -0.0031967263 0.14700226
000020 1a 99 af 39 39 21 64 38 4e 22 e6 3c ac 5a 91 37
       0.0003349267 5.4390377e-05 0.02809253 1.732757e-05
000030 c2 b7 93 3c 51 98 7d bc 4d 21 05 3b 93 0c 77 bb
       0.018031958 -0.01547821 0.0020314038 -0.0037696704

sequential/conv2d_1/BiasAdd/ReadVariableOp f4 [32]
000000 5f 08 01 3d 1b b3 22 3b 10 52 46 3d ba 74 3a 3e
       0.031502124 0.0024825993 0.048418105 0.1820859
000010 71 4b ae 3d d5 54 af 3c 66 10 3a 3e 4a 5b c8 3a
       0.08510483 0.021402756 0.18170318 0.0015285995
000020 3d 7b 3b 3d 96 3d c9 3c 37 bd ed 3d 3d cf 1b ba
       0.045771826 0.0245655 0.116083555 -0.00059436617
000030 fa 71 bc bb 50 9a 27 3b 63 cf a1 bd 8e e0 0c 3e
       -0.0057508918 0.0025574155 -0.07900884 0.13757536
000040 78 1f 9e 3c e4 52 b6 3d f4 0f 85 3d 73 f9 41 3d
       0.019302115 0.08902529 0.064971834 0.047357034
000050 49 d4 3f bd 79 ae 14 bd ae 0b 2d 3d 0a fd fd bb
       -0.04683331 -0.036299203 0.042247467 -0.007751112
000060 6c e4 89 3d 27 12 a1 3c 5f 93 b6 3d 60 44 bd 3d
       0.06733021 0.019661976 0.089148276 0.09241557
000070 11 34 fc bb 11 5a 82 3d f9 6d 9f 3d 08 2c 69 3d
       -0.0076966365 0.06364835 0.077846475 0.056926757

sequential/conv2d/Conv2D f4 [16, 3, 3, 1]
000000 ca 7c 9b bc 4b 5e f8 bd b5 4d 6b 3e 3a d2 38 be
       -0.018980402 -0.1212736 0.22978862 -0.18048945
000010 8a 6e 91 bb 59 ed f8 3d e3 97 6f bd 98 77 47 bd
       -0.004438226 0.121546455 -0.05849446 -0.048698038
000020 c0 c9 91 3d 1e 66 83 3e 5b cf 61 bc f6 7b 84 bd
       0.07118559 0.25663847 -0.013782348 -0.06468956
000030 47 05 00 3d 8e e3 9e 3d f5 69 a3 3b e7 d4 d6 3c
       0.031255033 0.07758246 0.0049869963 0.026224567
000040 bb 9c 08 3d 45 bd 43 3e bb 14 89 be 04 c9 52 bd
       0.033352595 0.1911517 -0.2677363 -0.051461235
000050 3a 6e e4 bd 5f 18 12 3e 9e 29 35 3e ef 32 c9 3d
       -0.111538365 0.1426711 0.17691657 0.09824168
000060 07 76 0b 3e b3 14 dd bd cc 3a ae bd 15 8b 43 be
       0.13619243 -0.10794964 -0.08507308 -0.19096024
000070 83 ed e9 3d 3f d2 a4 3d ea 14 93 3b b5 ed 17 3e
       0.11422255 0.08047914 0.004488577 0.14836772
000080 0b 73 70 be 3f 14 2c 3e 68 a1 0d 3e b2 7c 7f be
       -0.23481385 0.16804598 0.13831103 -0.24949911
000090 6b c7 16 be bc 6d 90 3e ba 4b 4f 3e 1e be 1a bd
       -0.1472451 0.2820872 0.20243731 -0.037778966
0000a0 92 63 84 3e a3 15 bc bd e1 25 d5 bc c0 d3 98 3b
       0.25857216 -0.091838144 -0.026019039 0.0046639144
0000b0 9d 28 99 be 05 1f 60 be 58 db 4d be a7 f1 24 3e
       -0.29913798 -0.21886833 -0.20103204 0.16107808
0000c0 dd c8 5b be 66 5d 66 3d 2d 3f 92 3e 8b 7b 0e 3c
       -0.21463342 0.056241415 0.28563824 0.008696447
0000d0 b2 59 86 bd 16 00 4d 3e 42 29 3a 3e 6d 6e 5a 3d
       -0.06560077 0.20019564 0.18179801 0.053327966
0000e0 ce ed 67 be f7 4a c6 3c 6a c8 6b 3e f3 c4 e4 bd
       -0.22649309 0.024205668 0.2302567 -0.111703776
0000f0 29 57 be 3d 52 04 cf bd 1a a4 e0 bd f8 4e fc 3d
       0.09293968 -0.10108246 -0.109688 0.123197496
000100 34 57 be 3e 6c 0c 63 3d fe 74 ac be 7b 4c 90 be
       0.37175906 0.05543177 -0.33683008 -0.2818335
000110 81 b8 ab 3d fe bd 3f bf 01 2f 83 bf 47 e2 84 be
       0.08384801 -0.7489928 -1.024872 -0.25953886
000120 cf 5e 07 3e 63 49 31 be 0c 8a 28 3d a8 08 31 3e
       0.1321976 -0.17313151 0.041147277 0.17288458
000130 b6 dd 16 be 8d bf d2 bc 1d 9a 50 3e c4 37 9f bd
       -0.14733014 -0.025726104 0.2037129 -0.07774308
000140 16 14 00 be 17 ff 2a be 87 b6 1a be 92 21 98 3e
       -0.12507662 -0.16698872 -0.15108691 0.29713112
000150 3b a3 a6 3c 9b e1 b2 bd 1a ed c9 3d 8d 44 89 bc
       0.020341506 -0.08734437 0.09859677 -0.01675632
000160 0c 1f fc 3c 7e 9e cc bc 1c 8c e1 3d 6f 06 a2 3e
       0.030776523 -0.024977919 0.11013052 0.31645533
000170 55 b4 98 3d 1c e0 fa 3c e2 14 9e bc 24 7c 86 3e
       0.074562706 0.030624442 -0.019297067 0.26266587
000180 24 d2 94 bd eb 0f a0 bd 84 f1 48 3e 5d 50 9f be
       -0.07266644 -0.07815536 0.19623381 -0.31116
000190 ec 02 3c 3e 54 fd 06 3e ac 75 0f be c7 9b 37 3b
       0.1836049 0.13182575 -0.14009732 0.0028016435
0001a0 d0 bf 09 3e 4d 12 97 3d d9 8c 47 3e 48 37 89 be
       0.13452077 0.073765375 0.19487323 -0.2679999
0001b0 c8 c7 f8 bc 81 8e 82 3e 9d 42 38 3e c0 bb 6b 3d
       -0.0303687 0.25499347 0.17994161 0.0575521
0001c0 c9 19 24 3e 52 e3 2b be d9 e3 0f 3e 98 b8 7b be
       0.16025461 -0.16785935 0.1405176 -0.24582136
0001d0 91 5c b1 bc 9b 4a 1c be 6e 06 90 be d8 12 de 3c
       -0.021650584 -0.15262835 -0.28129905 0.027108595
0001e0 b3 7c 3e 3e 11 b2 4f be fa 91 13 be fb 11 76 3d
       0.18602256 -0.2028277 -0.14411154 0.06007574
0001f0 27 7e 83 3e 63 03 84 3e ad e5 70 3e cb db 58 be
       0.25682184 0.25783834 0.23525114 -0.21177594
000200 57 b7 0d 3d 04 1f 25 3d f6 7a 36 be 57 b5 b3 3d
       0.034598675 0.040312782 -0.17820343 0.08774822
000210 b8 55 85 bc be 30 4f be 27 91 4d 3e 9f 08 1d 3e
       -0.016276225 -0.20233437 0.20074902 0.1533532
000220 be 86 44 3e 31 d3 6d be b1 1d de bd d6 8b 84 3e
       0.19192025 -0.23225094 -0.10845507 0.25887936
000230 cd 52 18 3e c0 79 a1 bb 5e 64 0c be 63 94 89 3e
       0.14875336 -0.004927844 -0.13710162 0.26871023

sequential/conv2d_1/Conv2D i1 [32, 3, 3, 16]
000000 11 00 eb dc 16 0c e4 63 bc 4b 00 11 25 11 e3 01
       17 0 -21 -36 22 12 -28 99 -68 75 0 17 37 17 -29 1
000010 ef 2c 13 1c 1d d9 2b 5d db f5 34 df fe fb c8 33
       -17 44 19 28 29 -39 43 93 -37 -11 52 -33 -2 -5 -56 51
000020 f5 22 22 f6 10 d2 29 23 17 d1 25 e6 15 eb 10 f8
       -11 34 34 -10 16 -46 41 35 23 -47 37 -26 21 -21 16 -8
000030 01 f5 0e 01 f0 e6 f1 36 12 1b e9 ee f6 26 ea e4
       1 -11 14 1 -16 -26 -15 54 18 27 -23 -18 -10 38 -22 -28
000040 13 04 d3 ef 25 ea 14 6b 9e f1 ea ff 0a dc b3 ea
       19 4 -45 -17 37 -22 20 107 -98 -15 -22 -1 10 -36 -77 -22
000050 12 fc 05 fa 04 f6 10 10 20 e5 19 16 f8 26 1a 21
       18 -4 5 -6 4 -10 16 16 32 -27 25 22 -8 38 26 33
000060 0f d6 23 fa e7 f6 fd 4a 22 e2 df ec e8 10 1b de
       15 -42 35 -6 -25 -10 -3 74 34 -30 -33 -20 -24 16 27 -34
000070 27 e8 11 0d 23 f3 11 7f bd 1e e8 14 04 fd ce e5
       39 -24 17 13 35 -13 17 127 -67 30 -24 20 4 -3 -50 -27
000080 11 e2 d9 02 db 17 dd 19 f5 e9 fa da 11 f5 08 0d
       17 -30 -39 2 -37 23 -35 25 -11 -23 -6 -38 17 -11 8 13
000090 f4 13 0c c4 b6 14 dc 5c 17 28 29 c9 d2 e3 17 1f
       -12 19 12 -60 -74 20 -36 92 23 40 41 -55 -46 -29 23 31
0000a0 e4 e6 d7 53 03 f1 1d fe 01 2f db 22 e1 9d 47 f9
       -28 -26 -41 83 3 -15 29 -2 1 47 -37 34 -31 -99 71 -7
0000b0 14 05 db 29 fd e3 e9 ba e2 da 1d 17 24 e5 55 22
       20 5 -37 41 -3 -29 -23 -70 -30 -38 29 23 36 -27 85 34
0000c0 41 f8 c4 3e cf 2a f3 36 2b 2b 0a 2c ef 27 63 e5
       65 -8 -60 62 -49 42 -13 54 43 43 10 44 -17 39 99 -27
0000d0 02 e1 f5 57 df be 1f 1c 42 f2 02 41 0a 81 45 18
       2 -31 -11 87 -33 -66 31 28 66 -14 2 65 10 -127 69 24
0000e0 2b fc ad fe dc 5e 17 ba f2 4c 26 57 f6 cf 46 fe
       43 -4 -83 -2 -36 94 23 -70 -14 76 38 87 -10 -49 70 -2
0000f0 09 14 1c 3e 06 24 2c 4d f6 4c e9 08 d4 07 ef ea
       9 20 28 62 6 36 44 77 -10 76 -23 8 -44 7 -17 -22

sequential/dense/MatMul i1 [64, 3872] scale=0.0034038073 zero_point=0
000000 03 f7 09 03 ea 02 ee f5 26 f8 32 f1 09 16 f0 36
       0.010211422 -0.030634265 0.030634265 0.010211422 -0.07488376 0.0068076146 -0.06126853 -0.03744188 0.12934467 -0.027230458 0.17019036 -0.051057108 0.030634265 0.07488376 -0.054460917 0.1838056
000010 19 f4 20 f0 f7 0b 05 f6 0f f5 f1 f5 00 fd 03 02
       0.08509518 -0.04084569 0.10892183 -0.054460917 -0.030634265 0.03744188 0.017019037 -0.034038074 0.051057108 -0.03744188 -0.051057108 -0.03744188 0.0 -0.010211422 0.010211422 0.0068076146
000020 08 ef e7 f3 0c f6 06 01 08 06 00 fe f5 09 16 fc
       0.027230458 -0.057864726 -0.08509518 -0.044249494 0.04084569 -0.034038074 0.020422844 0.0034038073 0.027230458 0.020422844 0.0 -0.0068076146 -0.03744188 0.030634265 0.07488376 -0.013615229
000030 0c 0a 0f 03 00 03 02 f9 fe fa fe fd 08 ff f1 f4
       0.04084569 0.034038074 0.051057108 0.010211422 0.0 0.010211422 0.0068076146 -0.023826651 -0.0068076146 -0.020422844 -0.0068076146 -0.010211422 0.027230458 -0.0034038073 -0.051057108 -0.04084569
000040 f1 f7 04 e6 3b f7 f8 18 ec 02 15 03 fe 1d 29 e2
       -0.051057108 -0.030634265 0.013615229 -0.08849899 0.20082463 -0.030634265 -0.027230458 0.08169138 -0.06807615 0.0068076146 0.071479954 0.010211422 -0.0068076146 0.09871041 0.1395561 -0.102114215
000050 f4 08 01 f7 f2 01 04 f7 07 01 0a 03 04 f6 fb f7
       -0.04084569 0.027230458 0.0034038073 -0.030634265 -0.047653303 0.0034038073 0.013615229 -0.030634265 0.023826651 0.0034038073 0.034038074 0.010211422 0.013615229 -0.034038074 -0.017019037 -0.030634265
000060 f7 f1 ee e6 fd ec f4 e8 02 fa 06 e8 fd e4 e2 ef
       -0.030634265 -0.051057108 -0.06126853 -0.08849899 -0.010211422 -0.06807615 -0.04084569 -0.08169138 0.0068076146 -0.020422844 0.020422844 -0.08169138 -0.010211422 -0.095306605 -0.102114215 -0.057864726
000070 e5 e3 eb 01 04 10 eb 09 04 ee e9 f6 fd f2 f8 04
       -0.0919028 -0.09871041 -0.071479954 0.0034038073 0.013615229 0.054460917 -0.071479954 0.030634265 0.013615229 -0.06126853 -0.078287564 -0.034038074 -0.010211422 -0.047653303 -0.027230458 0.013615229
000080 fb 1c 0f fb 06 f8 f7 f4 fa ef 0f 03 08 f6 d6 1b
       -0.017019037 0.095306605 0.051057108 -0.017019037 0.020422844 -0.027230458 -0.030634265 -0.04084569 -0.020422844 -0.057864726 0.051057108 0.010211422 0.027230458 -0.034038074 -0.14295991 0.0919028
000090 ea fc fa f2 fb 04 fd 06 02 ec f9 04 05 06 1d 2a
       -0.07488376 -0.013615229 -0.020422844 -0.047653303 -0.017019037 0.013615229 -0.010211422 0.020422844 0.0068076146 -0.06807615 -0.023826651 0.013615229 0.017019037 0.020422844 0.09871041 0.14295991
0000a0 ef 11 fa 00 ee 01 fe 0e e1 04 f7 16 13 01 03 07
       -0.057864726 0.057864726 -0.020422844 0.0 -0.06126853 0.0034038073 -0.0068076146 0.047653303 -0.10551803 0.013615229 -0.030634265 0.07488376 0.064672336 0.0034038073 0.010211422 0.023826651
0000b0 ee 29 ea f8 00 1e 06 08 01 f4 1a 05 0b fc 1b fb
       -0.06126853 0.1395561 -0.07488376 -0.027230458 0.0 0.102114215 0.020422844 0.027230458 0.0034038073 -0.04084569 0.08849899 0.017019037 0.03744188 -0.013615229 0.0919028 -0.017019037
0000c0 e5 00 d3 00 07 02 11 09 e4 e3 17 39 2f 11 26 e9
       -0.0919028 0.0 -0.15317133 0.0 0.023826651 0.0068076146 0.057864726 0.030634265 -0.095306605 -0.09871041 0.078287564 0.19401702 0.15997894 0.057864726 0.12934467 -0.078287564
0000d0 00 15 fb 00 ff 1c ee e4 fe 04 13 00 12 fb 26 22
       0.0 0.071479954 -0.017019037 0.0 -0.0034038073 0.095306605 -0.06126853 -0.095306605 -0.0068076146 0.013615229 0.064672336 0.0 0.06126853 -0.017019037 0.12934467 0.11572945
0000e0 ee 0a d6 f9 03 f8 f9 14 ee ef ea 1d 15 02 f4 f1
       -0.06126853 0.034038074 -0.14295991 -0.023826651 0.010211422 -0.027230458 -0.023826651 0.06807615 -0.06126853 -0.057864726 -0.07488376 0.09871041 0.071479954 0.0068076146 -0.04084569 -0.051057108
0000f0 f2 ec f9 ee ec fb 01 f3 f8 09 08 ea f4 fe 06 24
       -0.047653303 -0.06807615 -0.023826651 -0.06126853 -0.06807615 -0.017019037 0.0034038073 -0.044249494 -0.027230458 0.030634265 0.027230458 -0.07488376 -0.04084569 -0.0068076146 0.020422844 0.12253706
